…
[34m[1mtensorboard: [0mStart with 'tensorboard --logdir runs/train', view at http://localhost:6006/
[34m[1mhyperparameters: [0mlr0=0.01, lrf=0.2, momentum=0.937, weight_decay=0.0005, warmup_epochs=3.0, warmup_momentum=0.8, warmup_bias_lr=0.1, box=0.05, cls=0.5, cls_pw=1.0, obj=1.0, obj_pw=1.0, iou_t=0.2, anchor_t=4.0, fl_gamma=0.0, hsv_h=0.015, hsv_s=0.7, hsv_v=0.4, degrees=0.0, translate=0.1, scale=0.5, shear=0.0, perspective=0.0, flipud=0.0, fliplr=0.5, mosaic=1.0, mixup=0.0

                 from  n    params  module                                  arguments                     
  0                -1  1      7040  models.common.Focus                     [3, 64, 3]                    
  1                -1  1     73984  models.common.Conv                      [64, 128, 3, 2]               
  2                -1  1    156928  models.common.C3                        [128, 128, 3]                 
  3                -1  1    295424  models.common.Conv                      [128, 256, 3, 2]              
  4                -1  1   1611264  models.common.C3                        [256, 256, 9]                 
  5                -4  1      7040  models.common.Focus                     [3, 64, 3]                    
  6                -1  1     73984  models.common.Conv                      [64, 128, 3, 2]               
  7                -1  1    156928  models.common.C3                        [128, 128, 3]                 
  8                -1  1    295424  models.common.Conv                      [128, 256, 3, 2]              
  9                -1  1   1611264  models.common.C3                        [256, 256, 9]                 
 10            [4, 9]  1   6351360  models.common.GPT                       [256]                         
 11           [4, 10]  1         0  models.common.Add2                      [256, 0]                      
 12           [9, 10]  1         0  models.common.Add2                      [256, 1]                      
 13                11  1   1180672  models.common.Conv                      [256, 512, 3, 2]              
 14                -1  1   6433792  models.common.C3                        [512, 512, 9]                 
 15                12  1   1180672  models.common.Conv                      [256, 512, 3, 2]              
 16                -1  1   6433792  models.common.C3                        [512, 512, 9]                 
 17          [14, 16]  1  25285632  models.common.GPT                       [512]                         
 18          [14, 17]  1         0  models.common.Add2                      [512, 0]                      
 19          [16, 17]  1         0  models.common.Add2                      [512, 1]                      
 20                18  1   4720640  models.common.Conv                      [512, 1024, 3, 2]             
 21                -1  1   2624512  models.common.SPP                       [1024, 1024, [5, 9, 13]]      
 22                -1  1   9971712  models.common.C3                        [1024, 1024, 3, False]        
 23                19  1   4720640  models.common.Conv                      [512, 1024, 3, 2]             
 24                -1  1   2624512  models.common.SPP                       [1024, 1024, [5, 9, 13]]      
 25                -1  1   9971712  models.common.C3                        [1024, 1024, 3, False]        
 26          [22, 25]  1 100902912  models.common.GPT                       [1024]                        
 27          [22, 26]  1         0  models.common.Add2                      [1024, 0]                     
 28          [25, 26]  1         0  models.common.Add2                      [1024, 1]                     
 29          [11, 12]  1         0  models.common.Add                       [256]                         
 30          [18, 19]  1         0  models.common.Add                       [512]                         
 31          [27, 28]  1         0  models.common.Add                       [1024]                        
 32                -1  1    525312  models.common.Conv                      [1024, 512, 1, 1]             
 33                -1  1         0  torch.nn.modules.upsampling.Upsample    [None, 2, 'nearest']          
 34          [-1, 30]  1         0  models.common.Concat                    [1]                           
 35                -1  1   2757632  models.common.C3                        [1024, 512, 3, False]         
 36                -1  1    131584  models.common.Conv                      [512, 256, 1, 1]              
 37                -1  1         0  torch.nn.modules.upsampling.Upsample    [None, 2, 'nearest']          
 38          [-1, 29]  1         0  models.common.Concat                    [1]                           
 39                -1  1    690688  models.common.C3                        [512, 256, 3, False]          
 40                -1  1    590336  models.common.Conv                      [256, 256, 3, 2]              
 41          [-1, 36]  1         0  models.common.Concat                    [1]                           
 42                -1  1   2495488  models.common.C3                        [512, 512, 3, False]          
 43                -1  1   2360320  models.common.Conv                      [512, 512, 3, 2]              
 44          [-1, 32]  1         0  models.common.Concat                    [1]                           
 45                -1  1   9971712  models.common.C3                        [1024, 1024, 3, False]        
 46      [39, 42, 45]  1     59235  models.yolo_test.Detect                 [6, [[10, 13, 16, 30, 33, 23], [30, 61, 62, 45, 59, 119], [116, 90, 156, 198, 373, 326]], [256, 512, 1024]]
Model Summary: 1189 layers, 206274147 parameters, 206274147 gradients

Scaled weight_decay = 0.0005
Optimizer groups: 372 .bias, 372 conv.weight, 174 other
[34m[1mwandb: [0mInstall Weights & Biases for YOLOv5 logging with 'pip install wandb' (recommended)
…
